DeepLearningWithPyTorch/models/birds_vs_airplane.pt (torch, 74639 bytes, 8 tensors)

conv1.weight f4 [16, 3, 3, 3]
00000000: b34a 163d 4ef3 e53a 5304 46be b117 f7bd
00000010: 43c9 c5bd 3e76 9fbd d839 c0bc aec9 65be
00000020: 0764 263e f768 6c3e 9125 07be 2bed 433e
00000030: 2e32 6c3e 9150 c0bd d6e7 3e3e 1465 5b3e
00000040: 2db2 3d3d 1dfe 0a3e fe19 cbbd c42c 1dbe
00000050: 32e8 f83d c034 a9bc 661f acbe 4201 91bd
00000060: 5549 633e c737 18bd 1fa7 023e 78c4 9a3d
00000070: c87c b5bc e505 4cbe 1afa b7bd f38e 7a3e
00000080: 1098 893d ac2b b8be 4fe0 683e 3f63 2e3e
00000090: 67bc 1dbc 9f1a 49bd 03ce f83d 71b6 28bc
000000a0: 3fa7 693e 6e72 edbd ee85 03bf 2c30 323e
000000b0: be8d 973e 646f c8bc 7b90 3ebd d97b c23d
000000c0: 863d acbd db11 efbd c28e e7bd 4e80 00bf
000000d0: a80b 7c3e e713 813e ddf5 18be 9bd6 cf3d
000000e0: 9b6a d93d 4705 02be 8170 223e 7a3a 31be
000000f0: 8a7a 353d 2e6f 31be d801 2b3e c6ce 6cbe
00000100: c75d 233d 69b3 403d 625c 2e3e bae6 923d
00000110: 77e6 2bbd fcd6 693d 6f57 eb3d 3d90 893b
00000120: 1804 70bd b5c9 433d faba 1b3e 9a4d 2b3e
00000130: fd76 893e 364d 5c3d 6a19 6c3e 109f 01bd
00000140: 97b0 303e 931e c73c 1fe6 32be 5641 563e
00000150: 852a fdbd b16c 90be 40cb 3cbd bce1 12be
00000160: 1d29 9d3d b250 d9bd 3040 7f3e 987e 7fbe
00000170: 7fb1 89bd 4af5 193e 6294 15be 5dfe 823d
00000180: 38cd a43d 7291 103e 8a82 2d3b 4384 ac3d
00000190: d9f8 74be e281 9cbe 2404 e7bc edb4 d4be
000001a0: c4d7 7c3d 496b 4c3e ad2b 07bd d713 6bbe
000001b0: f3c8 5abe 60eb 4a3e 570e 2f3e 2943 83be
000001c0: 95c4 73bc 31f3 0e3d cfdc 2fbe 7b7c 8d3e
000001d0: 0aed 07bd be89 53bd d2a8 08be 61cd 753e
000001e0: f53e 64be abf0 b8bd 33c1 fc3c 4569 65be
000001f0: 1aa1 4b3e 27bf b53d 14a9 bd3d bd45 2b3e
00000200: 10df 033e 5fc4 fa3c 0a15 c0bd 14ef 863e
00000210: df21 40be 2f58 e43d 4288 103e 6d02 5fbe
00000220: 756b 2f3e 445a 18bd 1e16 9ebe 8d00 72be
00000230: a097 6ebd 3b72 21be 8bd8 70be 8f8a 213d
00000240: c7f9 303e b8e2 b2bc cc4f 183e 2463 b3bd
00000250: 8dc6 14bd 1e05 47bd e10b 4fbe d14c 36be
00000260: 0afb 703d 9b72 85bd 466e 28bd 3e38 88bc
00000270: 743f 803d 5191 8d3e 24d3 7d3c 48c5 453d
00000280: 3c67 463d 1edf 1d3e 21d0 09be 9bae c9bd
00000290: 0775 b2bd 1449 16bd 5e12 f03d b628 78bd
000002a0: 60f7 063e c848 2e3e 0875 833e 7cfc 44be
000002b0: 3dc5 093e 7cff 2fbe e2ca 8c3e aa5a 293e
000002c0: 7f7d 3dbe 000d 8fbd c4a0 6abd f758 793e
000002d0: 32fc 2fbd 2654 68be 89e4 52be 0bf2 1cbe
000002e0: 3013 ce3b 4834 d4bd 9bdb 383c 10e2 d13d
000002f0: 7c58 923d 1db9 973e 5883 89bd 66c0 23bd
00000300: 40fa c63d b05c 7b3e 7e47 c33c 5e58 5f3d
00000310: 9289 fb3d 2594 6e3e 5cbc 763a 6665 a1bc
00000320: 1f40 0ebe 614b a7bd dcb0 80be 9d97 68be
00000330: ed2d a3bd d334 13be 8b6c ccbd 4734 d13c
00000340: 5aaf 8ebe 8d85 8ebe a9d3 6d3e 6a6f 39be
00000350: b1fe 083d cc87 7abe 3f86 b5bd e64c 5cbe
00000360: f50c 11be 087b 36be b9f7 05be bc10 a9bc
00000370: a2d0 543e d03e 8b3e a58d 2bbe 0631 993e
00000380: 9adb eb3d e185 d53d 000d 2c3d bbdb e1bc
00000390: 671f b1bd e10e 063e 39d5 4cbe 145b 55bc
000003a0: 9d87 d8bc d393 85be 3b0e 013d dcbf 03be
000003b0: 6824 613e 6491 ff3d a431 173e 3eb1 28bc
000003c0: dfa0 7fbe 1f1d 3ebc 7fd0 96be 2dcf 173e
000003d0: 0682 afbc d494 0bbe a229 393e 0aec 28be
000003e0: 812d cd3d f399 b4bd 78c9 4cbe 3230 38bc
000003f0: 57a7 833d 3bf1 b83d 2937 01be b34d 7d3d
0.036692332 0.0017543824 -0.19337587 -0.12065066 -0.09657528 -0.07786225 -0.023465082 -0.22440216
0.16249095 0.23086916 -0.13197924 0.19133441 0.23066017 -0.09390367 0.18643126 0.21425277
0.0463125 0.13573499 -0.09917067 -0.15349108 0.12153663 -0.020655036 -0.33617705 -0.07080318
0.22195943 -0.03716257 0.12759064 0.07557005 -0.022154227 -0.19924124 -0.0898325 0.24468593
0.06718457 -0.3597082 0.22741817 0.17030047 -0.009627438 -0.049097653 0.121486686 -0.010297404
0.22817706 -0.11594091 -0.51376235 0.17401189 0.29600328 -0.024467178 -0.046524506 0.09496278
-0.08410172 -0.116733275 -0.11306526 -0.5019578 0.24613822 0.25210497 -0.1493754 0.101483546
0.106160365 -0.12697326 0.1586323 -0.17307463 0.044306315 -0.17327568 0.16699922 -0.23125753
0.039884355 0.0470461 0.17027429 0.07172914 -0.041967835 0.05708979 0.11491286 0.0041981027
-0.058597654 0.047799785 0.15208045 0.16728821 0.26848593 0.05378457 0.2305657 -0.031645834
0.17254864 0.024306571 -0.17470597 0.20923361 -0.123616256 -0.28207925 -0.04609227 -0.14343923
0.07673857 -0.106110945 0.2492683 -0.24950635 -0.06723308 0.15034977 -0.14607385 0.06396172
0.08046955 0.14117983 0.0026475512 0.084236644 -0.23923053 -0.30567843 -0.028200217 -0.41544285
0.061729208 0.19962801 -0.033000637 -0.22956787 -0.21365719 0.19816351 0.17095314 -0.25637177
-0.014878412 0.034899894 -0.17174076 0.27634034 -0.033185042 -0.051645033 -0.1334565 0.24004127
-0.22289641 -0.09030279 0.030853843 -0.22403438 0.19885674 0.0887435 0.09260765 0.16725822
0.1287806 0.030611215 -0.09379013 0.26354277 -0.18762921 0.11149632 0.14114478 -0.21778269
0.17130835 -0.03719546 -0.3087625 -0.23633023 -0.05825007 -0.15766232 -0.23520105 0.03943878
0.17282782 -0.021836624 0.1487419 -0.08759144 -0.036322165 -0.048588865 -0.20219375 -0.1780274
0.05883316 -0.06516 -0.04112079 -0.01662838 0.06262103 0.2764993 0.015492234 0.048283845
0.048438296 0.15417144 -0.13458301 -0.098477565 -0.087137274 -0.036690786 0.11722253 -0.0605857
0.13180304 0.17019951 0.25675225 -0.1923694 0.13454147 -0.17187303 0.27498537 0.16538492
-0.18504904 -0.069849014 -0.057282224 0.24350344 -0.04296512 -0.2268835 -0.20594992 -0.15326707
0.0062889084 -0.10361534 0.011282827 0.10248196 0.07145783 0.29633418 -0.06714505 -0.039978407
0.097157 0.24547076 0.023837801 0.054527633 0.12282099 0.232987 0.0009412223 -0.01970167
-0.13891648 -0.08168674 -0.25134933 -0.22714086 -0.07967744 -0.1437562 -0.099816404 0.025537623
-0.27868158 -0.27836266 0.23225273 -0.18108907 0.033446018 -0.24465865 -0.08863496 -0.2151371
-0.14165099 -0.1782037 -0.1308278 -0.020637862 0.20782712 0.2719636 -0.16753252 0.29920214
0.11516495 0.10425926 0.042004585 -0.027570596 -0.08648568 0.13091613 -0.20003213 -0.013022203
-0.026431853 -0.26089343 0.03150771 -0.12866157 0.21986544 0.12478903 0.1476503 -0.010296164
-0.24963711 -0.011603623 -0.29455945 0.14825125 -0.021424305 -0.13630992 0.18082288 -0.16496292
0.10018445 -0.08818426 -0.19998729 -0.011241959 0.06428402 0.09030386 -0.12618698 0.061841678

conv1.bias f4 [16]
00000000: 6414 74bd e2ed acbe 7453 b0bd 7772 643e
00000010: d40a 1fbd e105 42be 1b64 a6be 0c43 83be
00000020: cf3e b0be c83f 293e 4bd1 c3be d18c 6dbc
00000030: 7e50 e03d c383 813e 8710 5cbd 5a93 45be
-0.05958976 -0.3377524 -0.086096674 0.2230929 -0.038828686 -0.18947555 -0.3249825 -0.2563709
-0.3442292 0.16528237 -0.38245615 -0.014498905 0.10952853 0.2529584 -0.0537267 -0.19294491

conv2.weight f4 [8, 16, 3, 3]
00000000: 3892 89bc 356c fabd a0f4 06be 2f34 673d
00000010: d5b2 60bd f1a1 bbbd a475 37be 6cf2 7bbe
00000020: 38c9 e3bd 150a 983d f3f0 013d ca08 f93c
00000030: 7468 8dbd f3ec 173c 0f54 6f3d f69c 79bb
00000040: 877a c13d 9ca1 0a3e a222 a83d 35f7 4c3d
00000050: 0f62 5c3d f8de 493e 076b 713d 6b29 40bc
00000060: 20a4 873d 13f3 38bd 9283 4a3d 8e96 8b3d
00000070: ca05 0fbc 17a4 0fbd ca42 d33d 880a a7bd
00000080: 3329 803c ad47 0d3c 9c52 abbd 0c2e c6bc
00000090: abe3 77bd 8f46 7abd dc83 9b3b 6bf7 e8bb
000000a0: b97b 513d 0717 4abd a120 cabd 8798 27bd
000000b0: 57d9 e8bc ad45 c0bd 9488 aabc 271a 933d
000000c0: 4bc5 d53d 6572 ea3c c37e 843d 13c1 0a39
000000d0: eb0a 67bd 1f66 ab3b d949 a0bd 3453 10bc
000000e0: 3af1 f03d ca45 02bd fb45 863d dac8 723d
000000f0: cd1d a23c 2c81 943d cbc9 563e 8dca 663d
00000100: 8c5f 0e3e 3671 d03d 4930 0e3e 6456 333e
00000110: da76 e13d 0dda abbc 648c 283e 8b99 673e
00000120: 343f 863d 346d 10bd 69bb 4cbd 5908 173d
00000130: bd73 6a3d 398b abbd f13f 203c 56c3 8e3d
00000140: 8f89 633d a197 513d 7537 69bc 965e 2cbc
00000150: e090 ed3d 31e4 7ebd 313c 443d b3cd 1a3e
00000160: 04fb 15bd ab07 75bd ccdf 073d cda6 47bd
00000170: 4f3c 98bd 9f55 0c3e 1a94 d73c 6f3d dfbd
00000180: 3f04 273e 2dfb af3d 4c11 18bd bfac 263c
00000190: c16e 82bd 5d73 eabd 045a b93d 8b8b d0bd
000001a0: 49b5 87bd 0280 b9bd 92ca 2fbd 33fb 63bc
000001b0: b2a7 9a3d 0f9f b6bc e7ba 06be 0e41 37bd
000001c0: 76af 16bd e367 29bd 2970 f3bd 890a 8dbc
000001d0: 906a c2bd a52e 043e a6c2 593d 71b9 cc3c
000001e0: 7bc6 0f3e 18f8 2d3e 52e6 173e a8da 8f3d
000001f0: e0f7 ec3d 6132 7c3e 4348 00bc 947c febb
00000200: 27cc 64bd 4217 093d fd48 443e bb63 b03d
00000210: 6422 01bb 53e1 903d c556 3f3e 2f77 5fbd
00000220: 1deb a3bd 7f18 fc3d b80c ffbb 0191 61bc
00000230: 7330 dd3c 8bb5 12be 2f22 563d 7ce2 563d
00000240: 1a07 2bbd 74ac d7bd 63cf 9cbd 185c bd3d
00000250: 52e0 a1bd 3efc 94bd 8005 dabd 41e8 a7bd
00000260: a5a3 42bd 8ed9 1abe 890b 27be 8b71 1abd
00000270: f4d4 21be b178 50be 406f f2bd 2b79 14be
00000280: c6d9 38bc eb08 c3bd 8932 fbbd 0022 6dbd
00000290: 2b7a 10bc 1de6 eebd e92f 05bc a2e5 7fbd
000002a0: aed7 11bd 3509 44be 1030 0fbc fee9 72bd
000002b0: bae3 053d d54c eebd 2001 e0bd b7c1 07be
000002c0: c029 67be ebc0 04bd 67aa 44be b0ce dbbd
000002d0: e32e a8bd 44c7 e93c 0d35 2d3d c2c3 9bbd
000002e0: 570a 9ebd 72e8 493d e6f9 843c ca2a 07bd
000002f0: df84 68bd 80a9 b83d d99f 963d 3933 673d
00000300: 0efb 813d 5c0a b1bd 6665 01bc 3dd8 643d
00000310: f99e e03d 66bc c4bd b8ea 0ebe 4313 acbd
00000320: 700f aabc 233e 47bc f1bd c8bc 861d 92bd
00000330: f92e babd dc49 09be a6d5 3cbe 973a 773c
00000340: 522a 8bbd 81b3 b23c 09bd cebd 170e 1bbe
00000350: 8e01 a7bd 6c90 493a 3410 b2bc ca90 b7bd
00000360: ba6a 42bd de54 fabd 2f8b 4fbd fe78 2a3d
00000370: b953 2ebd b381 10bc 40b2 2abd a752 03bd
00000380: 6562 4bbc 442d 123c 0481 fb3c 1334 043d
00000390: 737b 1c3d 5c10 18bd 841e 8fbc 5b56 6abd
000003a0: 0472 6abd bd18 c3bd 2a37 313d 3b13 073e
000003b0: faef 55bd e6e7 38bd 3ec4 f5bc 7963 a1bc
000003c0: 3caa e23d 67f4 c8bd 78a1 85bd fbaf 53bd
000003d0: b3aa 49bd 693f e7bd f410 a2bd 798e e9bd
000003e0: 5ed4 3cbe 3278 b6bd 63df 473b 531c 57bd
000003f0: d892 0dbe d58e 0cbe da7c 1bbe f3bd b03d
-0.016793355 -0.1222767 -0.13179255 0.05644625 -0.054858048 -0.09161747 -0.1791597 -0.24604195
-0.11122364 0.07423798 0.031723928 0.030399699 -0.069046885 0.009272802 0.058429774 -0.003808794
0.09447198 0.13538212 0.08209731 0.050040442 0.053804453 0.19713962 0.05893996 -0.011728625
0.06623101 -0.04515369 0.04944188 0.068158254 -0.008729408 -0.035068598 0.103154734 -0.081563056
0.015644645 0.008623046 -0.08365366 -0.024191879 -0.060519855 -0.061102446 0.0047459435 -0.0071095726
0.05114338 -0.049338367 -0.09869505 -0.040916946 -0.028423948 -0.093882896 -0.020817079 0.071827225
0.10438021 0.028619 0.064694904 0.00013232631 -0.056406897 0.0052306796 -0.07826585 -0.0088089
0.1176476 -0.031804837 0.065563165 0.05927358 0.0197896 0.072512 0.20975415 0.05634551
0.13903636 0.10177843 0.13885607 0.17513424 0.11008997 -0.020977998 0.16459805 0.22617166
0.06555024 -0.035260394 -0.049983416 0.036873195 0.057239283 -0.08376164 0.00978087 0.06970851
0.055551108 0.051169995 -0.014234413 -0.010520598 0.11599898 -0.06222934 0.047908965 0.1511753
-0.03661634 -0.059821766 0.033172414 -0.048743058 -0.07433378 0.13704537 0.026315738 -0.109003894
0.16310214 0.0859283 -0.03712587 0.010173022 -0.06368781 -0.11447785 0.09050372 -0.10182866
-0.06626374 -0.09057619 -0.042917795 -0.013914871 0.075515166 -0.022292642 -0.13157235 -0.044739775
-0.036788426 -0.04135884 -0.11886627 -0.017216938 -0.094929814 0.12908418 0.053164147 0.02499077
0.14040558 0.16989172 0.14833954 0.07024127 0.11570716 0.24628593 -0.007829729 -0.0077663157
-0.055858757 0.033469446 0.19168468 0.08612772 -0.0019704336 0.07074227 0.18685444 -0.05455702
-0.08003829 0.1230936 -0.0077834986 -0.013767482 0.027000641 -0.14327066 0.052278694 0.052462086
-0.04175482 -0.1053094 -0.076567434 0.09246081 -0.07904114 -0.07274674 -0.1064558 -0.08198596
-0.047519345 -0.15122053 -0.16312994 -0.03770594 -0.15803891 -0.2035854 -0.118376255 -0.14499347
-0.01128239 -0.09523185 -0.12265498 -0.057893753 -0.00881819 -0.116649844 -0.008129098 -0.062474854
-0.03560608 -0.19144137 -0.008739486 -0.059305184 0.03268788 -0.11635748 -0.109377146 -0.1325749
-0.2257452 -0.032410543 -0.19205628 -0.10732782 -0.08212068 0.0285374 0.04228692 -0.07605697
-0.07716816 0.049293943 0.016232442 -0.03299979 -0.05676734 0.090167046 0.07354707 0.056445334
0.06346713 -0.08644554 -0.00789771 0.055870283 0.10967822 -0.09606247 -0.13956726 -0.084021114
-0.020759314 -0.012160811 -0.024504634 -0.071345374 -0.090909906 -0.13407081 -0.18440875 0.0150896525
-0.06795181 0.02181411 -0.10094649 -0.15142094 -0.081545934 0.0007689062 -0.021736242 -0.08963163
-0.047465064 -0.122232184 -0.050669845 0.041619293 -0.042560313 -0.008819985 -0.0416739 -0.032061245
-0.012413596 0.008921925 0.030701168 0.032276224 0.038203668 -0.037124977 -0.017470606 -0.05721126
-0.05723764 -0.09526203 0.0432655 0.1319093 -0.052230813 -0.04514303 -0.030000802 -0.019700753
0.11067626 -0.09812241 -0.06524938 -0.0516815 -0.049235057 -0.112913914 -0.0791339 -0.11404128
-0.18440387 -0.08909644 0.003049814 -0.052517246 -0.13825548 -0.13726361 -0.15184346 0.0862998

conv2.bias f4 [8]
00000000: c58c e8bd 805f c93c ff27 4e3c e1f1 1cbe
00000010: f440 c8bd 74a7 e3bd d503 8bbd 04f9 57bd
-0.11354975 0.02458167 0.012582778 -0.15326644 -0.09778014 -0.111159235 -0.0678784 -0.052727714

fc1.weight f4 [32, 512]
00000000: ab18 3f3c 1ac1 89bc c92b ca3c fbee 933c
00000010: 8563 0fbd ce5c cf3b 473a 153b 8fa3 ad3b
00000020: 74f4 1b3d 119a 30bd d705 86bc 2397 eeba
00000030: fbff 9abb 9859 16bd 9d4e ddbc 909d b03c
00000040: 8b7d f1bc 6a11 383c eb81 20bd 5f65 89bc
00000050: a604 87bc e494 af3b b81a 87bb 691b 0cbc
00000060: d55f 05bd 8f78 c1ba d05f d13c e4ae c73c
00000070: c442 08bd 302d e83c f6d2 d73c d930 023d
00000080: ff39 ca3b aa47 063d 7008 ad3b 7b3a 26bd
00000090: 495e 12bd fccb bf3c 54c5 a83c b1f8 32bd
000000a0: 2fb6 aabc 09c5 86bc ad88 88bc 5e84 d53c
000000b0: b3a6 63bc 5e04 e0bc ac3a 2c3d 8d66 36bd
000000c0: 958f 20bd fe8e 9fbc b595 8dbc 4ebf 0a3d
000000d0: 4650 123d 3535 99ba d078 36bc 4db9 31bc
000000e0: a026 3ebd 0723 28bd a255 1a3d b195 3fbb
000000f0: e850 123d fb4c 0dbc 5428 e13c a082 08bd
00000100: 2546 2bbd d789 43bd 2538 89b9 69e9 613c
00000110: 64be 2a3c 8d17 02bd c9a1 30bd 88d1 6abc
00000120: f065 95bc 9cf4 41bd 193c 06bd 1cf1 00bc
00000130: acfb 36bc 43d6 43bc 5e42 37bc 2e42 ebbc
00000140: 607a 50bc bd00 0bbd 6507 193d 4b93 b03b
00000150: 6546 213d f745 143c af58 88bb e5ff 9cbc
00000160: a2d6 273d ac0b 26bb 764f 3abd fce8 af3c
00000170: bbcc 6b3c 58d0 bc3c 7e18 183b 9bae 74bc
00000180: d715 f13c be8d 66bc 04df 8bbb f0b9 81bc
00000190: 60f6 32bd 4828 29bd 02fe 83ba 3bf9 c23a
000001a0: f987 d73c 6840 833c 93b7 7d3c eeb2 d5bc
000001b0: a6a2 cfbc 27e9 3c3b 4d49 fe3c 1a18 b23c
000001c0: 39c4 26bd 55e0 22bd 7a0a 33bd 0329 213d
000001d0: b801 9e3c 24ec 1a3d 2117 503c c53c c6bc
000001e0: d78c 25bd 0201 09bd 295f 17bd 1265 08bc
000001f0: 96f4 80ba 494e 8a3c 1d3d 97bc 7648 0bbd
00000200: f04a f5ba be8a 16bc 058f 863c 1799 c3bc
00000210: 4e27 a73c 8891 a5bb 73f9 0aba a0bc 0bbd
00000220: bb2d fabc 92bd fcbc f838 203d 5dea e33c
00000230: eaf0 a83b 2d60 c4bc d52b 1cbc 16d0 5fbc
00000240: 751c f63b bdd6 0abc ff7e 0bbd 2d01 b93c
00000250: 0e22 bbbb 9522 11bd 4859 feba 619b ed3c
00000260: 742d f63b a14e 073d abf1 113d 8792 95ba
00000270: 89ba 2bbd 470e afbc de12 a7bc 11e7 26bd
00000280: 2321 c3bc 60c9 4bbb 304d 543c b569 283d
00000290: c5c5 f1bc 8e87 003d f8bc fe3c 4cb1 ddbc
000002a0: 30a0 ff3a 9397 3c3c b1cb 8c3c 692a 0cbd
000002b0: 8cca 89bc ac88 9dbc 9d59 9cbc a4fc 8dbc
000002c0: ebad 65bc 6fd1 eabb bc27 16bc fcb3 04ba
000002d0: 02d4 05bd edce 923c 57fb a03a a458 103d
000002e0: 0a06 31bc 8fff f5bc 3e62 b33c 908a 153d
000002f0: cc67 06ba 620f 523b d4f6 a1bb a5aa fdbc
00000300: 53c7 c83b fc92 04bc 2779 57b9 59cb d8bc
00000310: dd16 b1bc 6ecc f93c 74b2 fd3c f07f 0ebd
00000320: 5f05 8dbc d5cd ff3c 1eea 153d 9093 2abc
00000330: 7e62 21bd b3bc 953c 1883 fcbc b73e fe3b
00000340: e07c 04bd 4470 34bd 6659 18bd 845e 0a3d
00000350: cf10 9e3c 86ea ba3c 2e30 003d 62a1 db3c
00000360: 702d f63c b8fc 67bc 76ec a73c c15a 87bc
00000370: 9de6 83bb 6248 8c3c 8fa4 d83c 8c9e 27bc
00000380: b5bd a23c 4d1a 8cbc 793b f43c 1420 f03c
00000390: 23a1 8f3c c1f0 b1ba b8e6 87bc a715 4e3c
000003a0: ac16 b7bc 473a 1bbb 9dc3 7fba 7e14 bebb
000003b0: b197 393a 5328 723c e2cf 9e3c 0827 b73c
000003c0: 8735 d0bb b745 503c d429 473c cd2e 17bd
000003d0: 79cd 103d d12d 2d3d 9069 f4bc 6033 5c3c
000003e0: 6ff5 c93c e3e3 743c 234b 95bc 2479 b1bc
000003f0: a649 a0bc 312a daba 151a 9a3c 7de5 0d3d
0.011663596 -0.01681571 0.024679082 0.01805829 -0.03500702 0.006328202 0.0022770332 0.0052990387
0.038074926 -0.04311568 -0.016360207 -0.0018203001 -0.0047302223 -0.036706537 -0.027015025 0.021559507
-0.029478809 0.011234621 -0.0391864 -0.01677197 -0.016481709 0.0053583253 -0.004123058 -0.008551457
-0.032562096 -0.0014760661 0.025558382 0.024375387 -0.033266798 0.02834186 0.026345711 0.031784866
0.0061714645 0.032783188 0.005280547 -0.040583115 -0.03573445 0.023412697 0.020601906 -0.0436942
-0.020838825 -0.016451376 -0.016666735 0.026064094 -0.013894725 -0.027345832 0.04204814 -0.044531394
-0.03919943 -0.019477364 -0.0172833 0.03387385 0.035721086 -0.001168883 -0.011137202 -0.010847402
-0.046423554 -0.04104903 0.037679322 -0.002923351 0.03572169 -0.008624311 0.02748505 -0.0333277
-0.041814942 -0.047738876 -0.00026172507 0.0137885595 0.010421369 -0.03176074 -0.04312304 -0.014332183
-0.018237084 -0.04735242 -0.032772157 -0.007869985 -0.011168402 -0.011952939 -0.011185257 -0.02871808
-0.012724489 -0.03393625 0.037360568 0.0053886524 0.039373774 0.009049884 -0.0041609625 -0.019164989
0.040976174 -0.0025336547 -0.045485936 0.0214734 0.014392073 0.023048565 0.0023207958 -0.014934207
0.02942936 -0.01407188 -0.004268529 -0.015835732 -0.043691993 -0.04129818 -0.0010070207 0.0014875302
0.026309954 0.016021922 0.015485662 -0.026086297 -0.025346112 0.0028825493 0.031040812 0.021740008
-0.040714476 -0.03976472 -0.043711163 0.039345752 0.019287929 0.037822857 0.012700827 -0.024198899
-0.04041752 -0.033448227 -0.036955986 -0.008324878 -0.0009838517 0.016883032 -0.018461758 -0.03400465
-0.001871435 -0.009188352 0.016425619 -0.02387671 0.020404484 -0.005052749 -0.0005301453 -0.034115434
-0.030539384 -0.030852113 0.03911683 0.027821714 0.0051556723 -0.023971641 -0.009531935 -0.013660451
0.0075107166 -0.008474049 -0.03405666 0.022583568 -0.0057108467 -0.03543337 -0.001940527 0.029004754
0.0075127427 0.03303397 0.035630863 -0.0011411466 -0.04192594 -0.021369113 -0.020394739 -0.040747706
-0.023819512 -0.003109537 0.012957856 0.041116435 -0.02951325 0.031379275 0.031095967 -0.02706208
0.0019502696 0.0115107475 0.017186971 -0.034220133 -0.016820215 -0.01923021 -0.0190857 -0.017332383
-0.014018516 -0.0071660797 -0.009164747 -0.000506222 -0.03267289 0.017920936 0.0012281936 0.035240784
-0.0108046625 -0.030029086 0.021897431 0.036509097 -0.0005127161 0.0032052626 -0.0049427543 -0.030965159
0.006127277 -0.008091684 -0.0002054913 -0.026464151 -0.021617347 0.030492987 0.030968882 -0.03478998
-0.017214475 0.031226078 0.036600225 -0.010411158 -0.03940057 0.018278455 -0.03082423 0.007758941
-0.032345653 -0.044052377 -0.037194632 0.033781543 0.019295124 0.022816908 0.031295948 0.026810352
0.030050963 -0.014159374 0.020498496 -0.016522767 -0.004025294 0.017124359 0.026445655 -0.010230672
0.01986585 -0.017102385 0.029813515 0.029312171 0.01753289 -0.0013575779 -0.016589507 0.0125784045
-0.022349678 -0.002368586 -0.00097566267 -0.0058007827 0.0007079794 0.014780122 0.019386236 0.022357479
-0.006354037 0.012711934 0.012155969 -0.036909867 0.035352204 0.042280022 -0.029835492 0.013439983
0.024653165 0.014946911 -0.018224305 -0.02166421 -0.019566368 -0.0016644654 0.018811265 0.034642685

fc1.bias f4 [32]
00000000: 8f02 0d3d a234 ac3d 489c 26bd f676 063d
00000010: 31d0 903d 413a 85bc 5d1f 66bc 3a6c ddbd
00000020: 35c0 f03c 25a8 68bc 1cdb 143d ad51 f9bc
00000030: eb22 dbbd 0db0 913d cb7a e3bb add1 883c
00000040: f8e6 8d3b c910 74bd 7cf4 6c3d b8aa dfbd
00000050: 720d d73c 3133 923d b035 55bd d99c dabc
00000060: 926b 9dbd 2e76 c23c 9d02 7bbd 099d 253d
00000070: bafc 703c c9f8 a0bc f4f3 173d 4bc9 ae3c
0.03442627 0.084084764 -0.040676385 0.032828294 0.07070959 -0.01626313 -0.0140455635 -0.10811658
0.029388526 -0.014200245 0.03634177 -0.030434454 -0.107000194 0.07113657 -0.0069421283 0.016701544
0.004330512 -0.05958632 0.057850346 -0.10921234 0.026251528 0.0713867 -0.052053154 -0.026686119
-0.07686533 0.023737993 -0.06128179 0.040432964 0.014708692 -0.01964988 0.037097886 0.021336218

fc2.weight f4 [2, 32]
00000000: fbc0 723d 72ce 1d3f 3723 c8be 3ea7 293f
00000010: 0ac1 a23e 3ed0 9abe b940 e7bc d617 d0be
00000020: 67a4 0e3f dd92 373d 63ec d73e f93e 10bc
00000030: 0a6e b9be aab4 ce3d 9a57 c53e a2af 3f3e
00000040: 9ecd 78be f33f 9ebe 322a 953e e385 dcbe
00000050: fac4 143e e3e0 c93e e2d9 7abe 6e0d acbd
00000060: 38fd 393f da5a 1cbe 5462 4cbd e210 bb3d
00000070: 724c e63e bc10 ae3e 44cc 80bd 03b2 33be
00000080: 86da 793d c96a fbbe 6413 113f 86fd 22bf
00000090: c262 18be b1dc f13d 3d4d 2fbe b263 953e
000000a0: 4855 1abf 8970 4bbe 0864 33be 5862 893e
000000b0: a128 df3e 13be 9fbe 6404 7fbe a428 89bd
000000c0: 7565 ef3d bfa7 893e a9f1 0bbd 1107 fb3e
000000d0: ac7d 81be f674 c6be 8aa8 953e 7adb ed3c
000000e0: 316d 48bf d0e6 54bd c898 863e 9201 783d
000000f0: 4ff2 9ebe 71d4 6ebe 0890 923d 1745 0d3e
0.05926607 0.61643136 -0.39089367 0.66270816 0.31787902 -0.30237 -0.028229104 -0.40643185
0.5571961 0.044817794 0.42172536 -0.008804076 -0.36216766 0.10093053 0.38543397 0.18719342
-0.24297187 -0.30908164 0.29133755 -0.43070897 0.14528266 0.39429387 -0.24497178 -0.08400999
0.72652006 -0.15269032 -0.04989846 0.091340795 0.44980198 0.33997142 -0.062889606 -0.17548375
0.060999416 -0.49104908 0.5667021 -0.63668096 -0.14881423 0.11809672 -0.17119308 0.29177624
-0.6028638 -0.19867148 -0.17518628 0.26832843 0.43585685 -0.31199703 -0.24904019 -0.06697205
0.11689273 0.26885793 -0.034166012 0.4902883 -0.25291193 -0.3876111 0.29230148 0.029035319
-0.7829161 -0.051977932 0.26288438 0.060548373 -0.31044242 -0.23323227 0.07156378 0.13795887

fc2.bias f4 [2]
00000000: 477a 0a3e 8591 26bd
0.13523208 -0.040666122
